model.pth (torch_old, 28391 bytes, 6 tensors)

fc1.weight f4 [64, 37]
000000 30 f8 6a 3d f1 d5 ac 3d 85 0c c5 bd 3f b9 e0 bc
       0.057365596 0.084392436 -0.096215285 -0.027432082
000010 28 1e 3d bd d9 48 dd 3d ae 86 87 3d 28 e5 23 3e
       -0.046171337 0.1080491 0.06617485 0.16005385
000020 3a c1 c4 bb ec 5f 61 bd 56 70 84 bc 49 1c 0d 3d
       -0.0060044797 -0.05502312 -0.016166847 0.034450803
000030 1b 70 fd bd ee eb 6f bd 2b bf 82 bd a2 91 a6 3c
       -0.12374898 -0.05857461 -0.06384119 0.020333115
000040 4c d6 dc 3d 35 b7 ec 3d 90 1b 78 3c c3 67 0a 3d
       0.107830614 0.115583815 0.01514329 0.03379036
000050 28 3b 01 3e 1d a7 38 3e cb d3 10 3d d8 cc ea 3d
       0.12620223 0.18032499 0.03535823 0.11464852
000060 85 17 d2 bc 1c 74 d3 3c e7 cd 3b 3e 51 02 39 bd
       -0.02564598 0.025812201 0.18340264 -0.045168225
000070 1b 82 34 bd 30 88 03 be ac 5c 9f 3c 09 f0 30 3e
       -0.04406939 -0.1284492 0.01945337 0.17279066
000080 5c 12 3b bd 92 16 55 bd 7e ca 94 bd b7 83 b8 bd
       -0.045671806 -0.052023478 -0.07265185 -0.090094976
000090 69 1a b4 bd 64 b4 7d 3e f1 91 21 3e 38 03 9c 3d
       -0.087941 0.24775845 0.15778328 0.076178014
0000a0 64 e8 8c 3d 3c 6e 1a bc d8 91 8a 3d aa fc 12 be
       0.068802625 -0.009425696 0.06766099 -0.14354196
0000b0 d3 f1 12 bd 60 4d 82 3d c7 6e 10 b9 7c 88 9f 3d
       -0.035875153 0.06362414 -0.00013774178 0.07789704
0000c0 a2 8f df 3b ba af dd 3d f2 85 4e 3e e0 39 33 3e
       0.0068225423 0.10824533 0.20168284 0.17502546
0000d0 3f 28 39 3e 92 56 a6 3d 01 0a aa 3d dc 1d 8e 3d
       0.18081759 0.08121981 0.08302689 0.06939289
0000e0 bd db 97 ba 63 60 92 bb e1 ee f1 bd fc e3 10 3d
       -0.0011585873 -0.0044670566 -0.11813141 0.035373673
0000f0 bb 11 42 3d 33 3e f1 3d 6a 33 90 3d 93 f6 98 3d
       0.04738019 0.11779442 0.070410565 0.07468905
000100 6e d8 b0 3d ea 19 fc bb 0f c5 ce bd e8 d5 f1 3d
       0.08635031 -0.007693519 -0.1009618 0.118083775
000110 37 ea 19 3e 0f 59 50 3e 22 9b bd bc 9f c9 c0 3c
       0.15030752 0.20346473 -0.023145262 0.02353364
000120 bd 79 85 3d d3 e5 b0 3d fb 1a 89 bc eb d5 12 3e
       0.0651736 0.086375855 -0.016736498 0.14339416
000130 b8 1d 42 3e eb bc 80 bd 97 78 48 be 83 c4 9c be
       0.1895665 -0.06286033 -0.19577251 -0.30618677
000140 19 55 f9 3d 3d 18 2b 3e 04 67 8d bd 88 44 d6 be
       0.12174434 0.16708465 -0.06904414 -0.4184916
000150 3c 79 0a 3b d8 ad 42 bc 0b 20 3a 3d 8d f4 92 3d
       0.002112939 -0.011882268 0.045440715 0.071755506
000160 a7 c5 71 3d 68 4d 5d be a0 f3 35 3e e1 06 12 3e
       0.059026387 -0.2161156 0.17768717 0.14260437
000170 84 8f 8f bd 4a 3f 8a be 04 2b 23 bd 36 d0 04 3c
       -0.07009795 -0.2700141 -0.039835945 0.008106282
000180 a9 bd 8e 3d 13 66 d5 bc b2 6a 81 bd 3e bf 2a be
       0.069697686 -0.02604965 -0.06319179 -0.16674516
000190 ee b5 89 3e 55 6e 0e 3e 3c 58 03 be 27 9e e8 be
       0.26896614 0.13909276 -0.12826627 -0.4543316
0001a0 36 91 8c be 5a 06 7d 3d 7e e4 06 bc 8b 0c 45 be
       -0.27454537 0.061773635 -0.008233188 -0.19243066
0001b0 31 af 8b be ac b3 fc 3c c8 20 d2 ba d7 f6 ba 3d
       -0.27282098 0.030847393 -0.0016031498 0.09129112
0001c0 47 b0 92 3d f9 02 a3 3d 83 97 ff 3d 53 b6 d8 bd
       0.071625285 0.07959551 0.124800704 -0.105816506
0001d0 e4 25 59 bd ad 89 29 bd 37 82 66 3d db 3e 13 3e
       -0.05301465 -0.041391063 0.056276526 0.14379446
0001e0 3d 56 d6 3d 2f 68 08 bd be 4a 66 3d e8 13 61 3d
       0.104656674 -0.033302482 0.056223623 0.054950625
0001f0 df cc c6 bd 96 d6 01 bd 8c 58 6a bd d8 72 c6 bc
       -0.09707045 -0.031698786 -0.05721335 -0.024224684
000200 6b 75 7c bd af a1 d4 bd 75 03 af bd 12 3f 67 3e
       -0.061635416 -0.10382401 -0.08545581 0.22582653
000210 19 fc 9e be 04 36 4b be 0f b5 74 3c 5a 65 14 bf
       -0.3105171 -0.19844824 0.014935746 -0.5796715
000220 62 d5 1a 3c 2c 3c d4 3c 64 37 09 3d c2 32 05 3e
       0.0094502885 0.025907598 0.03350009 0.13007644
000230 f7 9e 09 3e 9b 67 0d 3d 63 a5 85 3e 92 5a 8f 3d
       0.13439547 0.034522634 0.26102743 0.06999697
000240 73 3a e2 bd fd 4e 43 be a7 be 2c 3c 43 14 bd bb
       -0.110463046 -0.190731 0.010543502 -0.0057702377
000250 d5 27 a7 bd 2a 11 63 be 81 e1 07 be c4 25 fd bd
       -0.08161894 -0.22174516 -0.13269617 -0.12360719
000260 f5 94 58 bd 42 6d 20 3e e6 29 fd 3b 1c de 11 be
       -0.05287643 0.15666679 0.007725942 -0.14244884
000270 74 55 19 be 95 01 07 bf e7 ec 5b bd be 81 97 bc
       -0.14974004 -0.5273679 -0.053692725 -0.018494483
000280 84 1a ab bc 21 23 2e be 38 4c f9 bd 01 15 2a be
       -0.020886667 -0.17005588 -0.12172741 -0.16609575
000290 78 65 a7 bb c1 06 81 bd 44 df 5d bd 98 0d 08 3e
       -0.0051085316 -0.06300116 -0.054168 0.13286436
0002a0 f7 fa 92 bd 06 ac 05 be ba 98 46 3d b2 22 8f 3d
       -0.07176774 -0.13053903 0.048485495 0.069890395
0002b0 b0 57 a9 3d 5a f4 2c 3d c3 49 b2 bd 96 a1 64 3d
       0.08268678 0.04222522 -0.08705475 0.055818163
0002c0 d8 94 03 bd ff a9 06 bc e3 0d 68 3d 70 2b 12 be
       -0.03212437 -0.008219241 0.05665387 -0.14274383
0002d0 7c 2c 41 3d 56 84 91 3d 3b 16 8b 3e 4f db e0 3b
       0.047161564 0.07105319 0.27165398 0.006862081
0002e0 93 80 a0 3d 71 86 78 3d 08 62 f3 bc ce 88 40 3c
       0.078370236 0.06067509 -0.02970983 0.011751367
0002f0 0f 17 06 bd 3f 6e b7 3d a7 c2 71 3e 24 b0 47 3c
       -0.032736834 0.08956575 0.2360941 0.012187991
000300 69 dc 70 be 82 65 8c b9 7a 2c 67 bf 96 39 83 bd
       -0.2352158 -0.0002677851 -0.9030224 -0.06407468
000310 ee 50 42 bd e8 ca 06 3d 75 01 91 bd 13 d6 82 3b
       -0.04744046 0.03290835 -0.07080356 0.003992805
000320 9a 9a f9 bb f4 dc a4 3d 91 92 5b bd 6e 97 98 3c
       -0.007617307 0.08049956 -0.053606573 0.018626895
000330 44 e8 26 bd f5 ad da 3d 72 0f 4d 3d 68 c7 1b 3e
       -0.04074885 0.10677711 0.050063558 0.15212786
000340 f7 46 da 3c ec cd 1c 3e 8c 6f 1d 3c cf bc c2 bc
       0.026645167 0.15312928 0.009609114 -0.023771672
000350 30 19 96 3d 7f c5 15 3e 27 b0 f0 3d 0f 54 86 3d
       0.07329023 0.1462612 0.117523484 0.06559002
000360 89 f8 9a bd 8c c9 c0 bd d2 64 2f 3e 0c de 44 be
       -0.075669356 -0.09413442 0.17128304 -0.19225329
000370 39 72 37 3c 2f aa 04 3e 4d 92 5b bd ee 2d 4e 3d
       0.011196666 0.12955545 -0.05360632 0.05033677
000380 88 c0 f8 bd eb d9 6d 3c 0a 3f 08 be 1c 85 b5 bd
       -0.121460974 0.014517288 -0.13305297 -0.08863279
000390 b5 aa 1f bd 13 79 b6 bd eb a8 1a bc 9e b6 1e 3e
       -0.03898116 -0.08909812 -0.009439687 0.1549935
0003a0 0e ad 89 bc bb 95 f4 3d 49 08 32 3d 12 81 61 bd
       -0.016806152 0.11942621 0.043464933 -0.05505473
0003b0 45 28 d5 3d 2e de f0 bd 54 33 9a bd a0 10 07 bc
       0.104080714 -0.117611274 -0.07529321 -0.00824371
0003c0 c9 0a 1c 3d ab 1c dd 3c bf 9d 4d bd 7a 21 68 3b
       0.038096223 0.026991209 -0.050199267 0.0035420344
0003d0 61 a5 94 3c 37 11 3a be d8 a1 03 3e b3 37 f4 bd
       0.018145265 -0.1817063 0.12854707 -0.11924686
0003e0 08 7a a0 bc e8 6a ab bd 76 d2 02 be d2 67 61 3b
       -0.019589439 -0.0837 -0.12775597 0.0034394157
0003f0 87 66 cc 3d 16 52 6f bd a2 6d f7 bd 6a f5 74 bd
       0.09980493 -0.058427893 -0.12081458 -0.059804358

fc1.bias f4 [64]
000000 de ad 64 3e ff ba af 3d 8f 69 e1 bd 79 79 4e bd
       0.2233195 0.085805885 -0.11006462 -0.050408814
000010 ed 52 07 3e 18 2d 67 3b 84 2e d7 bd 08 1f 13 3e
       0.13215227 0.003527468 -0.10506919 0.14367306
000020 7c 6c 7d 3d 6d 04 43 be 01 8c 80 3e d2 fa 53 3e
       0.061871037 -0.19044657 0.25106815 0.20701149
000030 39 3c 50 3e 24 f0 20 3e 07 9c fd 3c 66 56 27 3c
       0.20335473 0.15716606 0.030958189 0.01021347
000040 43 83 34 3e 00 20 a1 3c e5 7f 88 3d 4b aa 68 be
       0.17628197 0.01966858 0.06665019 -0.22721212
000050 de 76 4e bd 05 b7 e0 3d 51 35 32 3d 34 11 f2 bd
       -0.05040633 0.10972408 0.043507878 -0.118196875
000060 99 97 c1 bd ac 55 35 3e 19 93 ca bc bc 45 35 be
       -0.09452743 0.17708462 -0.024728345 -0.17702383
000070 05 92 2e 3e 8f 75 19 3e b1 2a 17 bd 27 35 22 be
       0.1704789 0.14986251 -0.036905948 -0.15840589
000080 db f3 47 3e fd b1 4e 3d 82 25 a3 3a 2d 51 65 3d
       0.19526617 0.05046271 0.0012447091 0.05598562
000090 c7 5e 9e 3d 13 3e 86 3d 64 c5 65 bc d0 d2 b2 bd
       0.07732921 0.065548085 -0.014024112 -0.087316155
0000a0 14 4d b5 bd 83 2a ef bc e4 7d 21 be d8 37 91 3e
       -0.08852592 -0.029195076 -0.1577068 0.28362918
0000b0 8f b6 b7 3d d4 25 dc bc 9a 2b a9 3d 07 85 2f be
       0.08970367 -0.026873507 0.082602695 -0.1714059
0000c0 d2 35 0b be a6 80 86 3d 11 b8 bb bd a2 54 8d 3d
       -0.1359475 0.065675065 -0.09165967 0.06900908
0000d0 38 dc 94 39 a9 1a 93 bd bc 8a 21 be b8 e4 90 3b
       0.00028392836 -0.071828194 -0.15775579 0.0044217966
0000e0 fa d8 d6 3d 78 8f d1 3c b3 4f aa bd 56 9f 06 be
       0.10490604 0.025581107 -0.08315983 -0.1314672
0000f0 18 ef f0 3d c3 f6 e5 3d 0e f1 3e 3d 4f 1c 2e 3d
       0.117643535 0.11228707 0.046616606 0.042507466

fc2.weight f4 [64, 64]
000000 fd c5 3c bb 8b cc 3d 3d bd 06 71 3e 35 c1 81 3e
       -0.0028804534 0.046337646 0.23537727 0.25342718
000010 31 13 41 3d 39 fc d7 bc 55 73 7f 3d be 99 17 bd
       0.047137443 -0.026365386 0.06236585 -0.037011854
000020 c6 8d d1 3d 16 18 17 bb bd 59 24 bd af be ae bd
       0.10232119 -0.0023055128 -0.040124644 -0.08532464
000030 21 3d 1c bd aa 18 00 3e 11 61 3a be 65 20 e3 3c
       -0.038144235 0.12509409 -0.1820109 0.027725408
000040 9b ad 57 bd a0 b2 f1 3c 76 d2 8e 3c ce 40 17 3e
       -0.052655797 0.02950412 0.01743434 0.14770815
000050 6a fe fa bd 36 d6 cd 3b d6 8b 31 3d bc aa 10 bd
       -0.12255557 0.0062816394 0.04334625 -0.035319075
000060 41 ee 65 3c bf 6b 7b be 29 97 47 3e d8 9f 9c bb
       0.014033855 -0.2455282 0.19491257 -0.004779797
000070 dd 1f 13 bd 44 bd 70 3d e8 c4 92 3e 0f 81 ae 3c
       -0.03591906 0.058774248 0.28665853 0.021301774
000080 e5 5a 09 3e 20 ae 7f 3b a7 71 8c 3d c2 0f b3 3c
       0.1341358 0.0039013699 0.06857615 0.0218581
000090 a8 c9 b2 bd 0b 37 d5 3d 30 36 a9 bd 48 51 42 be
       -0.08729869 0.10410889 -0.082622886 -0.18976319
0000a0 9d 6c 88 3a a4 60 c1 3d c7 bb 6e 3d a6 60 2a bd
       0.0010408346 0.09442261 0.058284547 -0.041596077
0000b0 7e 75 26 3d b9 8d 8e bd 63 e4 11 be fe 53 1b 3e
       0.040639393 -0.06960625 -0.14247279 0.15168759
0000c0 07 f0 3f bc 1f 8d 8b bd 9f 09 5f bd 8a f1 eb 3c
       -0.011714942 -0.06814026 -0.054452535 0.028801698
0000d0 0f 2d 0e be e0 a5 85 be a6 ff 08 3e 1f b9 e5 bc
       -0.13884376 -0.26103115 0.13378772 -0.028042374
0000e0 58 41 f6 bc 05 29 02 3e f7 f0 b6 bd 2d 06 d1 3d
       -0.030060455 0.1271096 -0.08932679 0.10206256
0000f0 02 c6 95 3d 45 5c 08 3e d5 11 79 3c 5b 31 31 be
       0.073131576 0.13316448 0.015202005 -0.17303984
000100 3f 8f 99 3d e7 d9 c0 3d 89 ca b1 be b0 ad c1 3d
       0.07498025 0.094165616 -0.34724835 0.094569564
000110 51 e5 e6 3d e1 0a f1 3d 8d d9 87 bd 4b 02 a6 3d
       0.112742074 0.11769653 -0.066332914 0.08105906
000120 34 22 b4 bd b1 07 df bd 2c 08 ed bb e0 25 28 3e
       -0.08795586 -0.10890139 -0.00723364 0.16420698
000130 e7 f4 16 be d4 35 14 3e 75 ff 9c bd 87 24 9e 3d
       -0.1474186 0.14473659 -0.07665912 0.07721811
000140 38 f5 e0 3d 0f 78 12 3d 6a 81 56 bd 3b 9c e1 bc
       0.10984272 0.035759028 -0.052369513 -0.027540317
000150 fc d5 4e 3d da a6 30 be 99 9e da 3d 24 6c 43 bc
       0.05049704 -0.17251149 0.10674781 -0.011927638
000160 e6 1d da 3c a4 ef 93 3d f4 35 7a be 90 9c 10 be
       0.026625585 0.07223442 -0.24434644 -0.14122224
000170 35 5b b9 3d 3c 46 06 3d 77 e2 41 be 15 f8 4b bd
       0.090505995 0.032781824 -0.18934046 -0.049797136
000180 2a 3f d1 bd 7b 50 f9 3c 27 8a ab 3c 24 c5 88 bd
       -0.10217126 0.030433884 0.0209399 -0.066782266
000190 54 44 46 3b 3b fb 22 bc 51 85 ce 3d 80 30 90 be
       0.003025313 -0.009947593 0.10084022 -0.28162003
0001a0 47 fc f4 bc e6 2d 5e 3e 8a a1 0b bd 99 b3 f6 bd
       -0.029905451 0.21697196 -0.034089603 -0.12045974
0001b0 bc d0 87 bd 07 f7 11 bd 52 c9 14 be 1a a8 82 bd
       -0.0663161 -0.035635974 -0.14529923 -0.06379719
0001c0 4e 2a cc bd 0e 80 bd bc b3 63 d5 bb 31 e3 ee 3d
       -0.099690065 -0.02313235 -0.006512129 0.11664427
0001d0 16 83 f6 bd 04 62 84 bd 7d e3 f7 bd 6a 0d 1a 39
       -0.120367214 -0.064640075 -0.12103937 0.00014691582
0001e0 24 01 c1 bd f8 bf 83 3d 6f 09 2e 3e 6c fc cb 3d
       -0.09424046 0.064330995 0.16995786 0.09960255
0001f0 7c 8e f2 bd c6 dd 0a 3d d6 ff b9 bd 48 e5 4d be
       -0.11843583 0.033902906 -0.09082 -0.20106995
000200 15 d1 69 bd 0f 01 d0 bd 58 3c e1 bd 0e 06 c9 3d
       -0.05708416 -0.10156452 -0.10997838 0.09815608
000210 9e 20 d2 3c 72 9a 8a 3d 87 7c b8 bd 23 a3 df 3c
       0.025650319 0.06767739 -0.09008127 0.02729947
000220 ab c3 00 3e 44 2e 7e bd 69 92 48 3d bc 1a 65 3d
       0.12574641 -0.06205584 0.048967753 0.0559337
000230 60 24 b6 3d 5d fa 2d 3e af ed 07 3d 80 dc 31 3c
       0.08893657 0.16990037 0.033185657 0.010855794
000240 08 82 d5 bd 93 55 e5 3d 3e ff ae 3d 7f a9 f7 bd
       -0.10425192 0.111979626 0.08544777 -0.12092876
000250 26 57 ef bd c0 6b 83 3d 1d 4a c8 3d 0b 2f 45 3c
       -0.11686544 0.06417036 0.09779761 0.012035142
000260 7c d1 a7 3c 2b 23 84 3d de 26 67 3e a5 fe 47 3d
       0.020485632 0.0645202 0.2257342 0.048826832
000270 87 42 86 bc 1c b0 70 3e c6 a3 85 be 5d f1 a1 bc
       -0.016389145 0.2350468 -0.26101512 -0.019768411
000280 fa c4 f7 bd c0 54 2f bd 78 d4 e9 bd ea 9c 0e 3d
       -0.12098117 -0.042805433 -0.11417478 0.034817614
000290 29 fe 04 3e 95 af fc 3d c0 62 64 3e bb 5d 94 bd
       0.1298758 0.12338177 0.22303295 -0.0724444
0002a0 32 5c 86 3e ca 30 25 bd aa 65 12 be d6 7d e7 bd
       0.26242214 -0.040329732 -0.14296594 -0.11303298
0002b0 23 dc c6 3c 95 2b 92 3c d3 17 0e 3d c6 4f 92 bd
       0.024274891 0.017843047 0.03469069 -0.07144122
0002c0 c7 d5 04 3c 55 86 1d be 64 f1 5e bd 42 6c e7 3c
       0.008107609 -0.15383275 -0.054429427 0.028249864
0002d0 f2 50 ef bd cc 61 6e 3e b4 de 9f be 05 46 61 bd
       -0.11685361 0.23279494 -0.31224597 -0.054998416
0002e0 64 92 08 bc 6f 06 3e bd fb 77 12 3e 16 66 f5 3d
       -0.0083356835 -0.046392854 0.14303581 0.11982362
0002f0 f4 4e 19 bd 18 6f ca 3d e2 7b 61 bd 5d 59 fb 3d
       -0.03742881 0.09884471 -0.055049784 0.12272904
000300 ec 48 ec bc 7d eb 8b bd 56 d6 7f 3d 26 d7 9e be
       -0.028843366 -0.06832025 0.062460266 -0.3102352
000310 37 dc 74 3d a2 23 4a 3c bd 01 81 bd a7 68 90 3a
       0.059780326 0.012337597 -0.0629916 0.0011017517
000320 64 80 f9 bd 26 41 ea bb 39 86 0f 3b 03 56 48 3e
       -0.12182692 -0.0071488796 0.0021900071 0.19564061
000330 c3 6f c3 bd 44 3f 18 3e 64 67 58 bc 6d e4 9a bd
       -0.09542801 0.14867884 -0.013208244 -0.075631
000340 82 ae be 3c 1c a0 2e bd 12 f9 3b bd fd fd 22 bc
       0.023276571 -0.04263316 -0.04589183 -0.009948251
000350 94 3c 05 3e 43 3f 9c 3d 63 29 42 3d 77 51 02 3d
       0.1301139 0.07629254 0.04740275 0.031815972
000360 bf b0 b7 3c 1a 47 d1 ba 96 12 a6 bd 29 1c 17 3d
       0.022423146 -0.0015966624 -0.08109014 0.03689209
000370 e5 9b 33 3e 91 b1 2f be 6e 41 b6 bd 77 44 86 bc
       0.17539938 -0.1715758 -0.088991985 -0.016390068
000380 21 34 ad bd c7 88 9e bd 8e 53 59 3d a7 3b 1e 3d
       -0.084572084 -0.07740932 0.0530582 0.038631108
000390 a2 dd 71 bd 83 b0 59 3c a1 12 5e be 8f 30 d0 bc
       -0.059049256 0.013286713 -0.21686794 -0.02541378
0003a0 30 40 50 be b2 e5 60 3d 40 d2 ae 3c 04 4d 78 bd
       -0.20336986 0.054906555 0.02134049 -0.060620323
0003b0 4d 4d 26 bd 4f 94 7f 3d 10 37 9e 3c 91 9a 22 3d
       -0.040601064 0.062397297 0.019313365 0.039698187
0003c0 a8 f8 66 3b f4 e4 80 3d 8a b4 b1 bd a0 96 63 3d
       0.0035243426 0.06293669 -0.08677013 0.05556357
0003d0 8f b5 94 3d 8a 0f 07 be f8 8a 80 bc dd a9 97 3d
       0.07261192 -0.13189521 -0.015691265 0.07405446
0003e0 7d d6 cd bd 99 88 5a 3d 7a 5a 84 bd ff 63 13 3e
       -0.10050676 0.053352926 -0.064625695 0.14393614
0003f0 c0 fc 1a be cd af ae 3d 7a 2a 9a bd d8 c3 44 bd
       -0.15135479 0.08529625 -0.07527633 -0.048038334

fc2.bias f4 [64]
000000 34 32 b1 bc a0 6d ed bc fb 78 ec 3d 0b fd b4 3d
       -0.021630384 -0.028982937 0.11546513 0.088373266
000010 ff da 39 3e d3 f1 2b be 74 7a 5a bd 95 23 69 3d
       0.18149947 -0.16791467 -0.053339437 0.0569187
000020 c4 fc f1 3d a0 e5 51 3e 59 6a 2e bd 32 d3 3e 3e
       0.11815789 0.20497751 -0.04258189 0.18635252
000030 d2 47 ba 3d 25 b5 1d bd 2a 2a 82 bd db 2e 58 3d
       0.0909573 -0.03850283 -0.063556984 0.05277906
000040 17 9f 80 3c 5f b1 9c 3b d0 70 40 bd ff e5 2b 3e
       0.01570086 0.0047818865 -0.046982586 0.16786955
000050 23 34 33 3e 36 2e 84 3e 0f b8 b0 bd f5 c9 ce bd
       0.17500357 0.25816506 -0.086288564 -0.10097114
000060 ca d6 bb bd 85 7f 94 bd e7 da d7 3d 0b 88 7f bd
       -0.09171827 -0.07250885 0.10539799 -0.0623856
000070 3f dd f4 bb 40 14 06 3e c6 b9 75 3d 42 d3 91 3a
       -0.0074726637 0.13093662 0.05999162 0.0011125582
000080 27 ef eb bc 9f 15 de 3d 21 01 e7 3d 3b cf 6c bc
       -0.02880056 0.10843968 0.11279512 -0.0144537045
000090 f5 6c 9f bd b7 09 09 be de 0d 48 3e a4 4a 6e bb
       -0.07784454 -0.13382612 0.1953654 -0.0036360407
0000a0 94 31 25 bd 83 3f 86 3e 5c 7f 2a 3e 00 8b 0a bd
       -0.040330485 0.2622033 0.16650146 -0.033823967
0000b0 9c a3 78 3d 84 52 92 bd 3f d9 88 3d 29 73 8f bd
       0.060702905 -0.07144645 0.066820614 -0.07004387
0000c0 24 01 b6 3d 7b a7 b4 bd 6d 6f c0 bc 34 67 47 3e
       0.08886936 -0.08821007 -0.023490632 0.19472963
0000d0 3e 35 ca bc f2 57 9b bd 9e 40 0d 3e c3 0c 19 bd
       -0.024683591 -0.075851336 0.13794181 -0.037365686
0000e0 72 ca 2f be b9 e1 05 be 56 a8 1d 3d 52 2b 30 bd
       -0.1716707 -0.13074388 0.038490616 -0.043010063
0000f0 15 ff 54 3d 53 31 1b 3e 81 3a df 3d cd 22 8a bd
       0.052001078 0.15155534 0.108998306 -0.06744919

fc3.weight f4 [4, 64]
000000 bb c6 5e be 56 c4 83 3e fe 1e 27 3e b4 dd 48 3e
       -0.21755497 0.2573573 0.16320416 0.19615823
000010 91 bf 1e 3e 57 5b f7 bd c0 7d 5d 3e 43 26 a7 bd
       0.15502764 -0.120779686 0.21630001 -0.08161595
000020 be 98 d1 3d d2 1b 21 3d cb cd c4 bd c6 c4 a8 3e
       0.102342114 0.039333172 -0.096095644 0.32962626
000030 78 c7 76 3b e9 72 6f 3e 30 50 1c bd 96 2a a9 bd
       0.0037655514 0.23383678 -0.03816241 -0.08260076
000040 5c e2 7f 3c 7d 53 31 3e 2a b1 d8 bd 60 32 10 3e
       0.015617933 0.17317005 -0.10580666 0.14081717
000050 ff f3 c1 3d 3c fc 6b 3d da e9 b7 3d 5f 43 7b be
       0.09470367 0.057613596 0.089801505 -0.24537419
000060 6a de 42 be a5 20 26 be 8f 3d 8d bd 15 fe 07 be
       -0.19030157 -0.1622339 -0.06896507 -0.13280518
000070 b9 d9 56 3d 5d 41 8d 3d 23 4f b4 bd 1b a1 02 3e
       0.05245373 0.06897233 -0.08804157 0.1275677
000080 7e f8 10 3e a7 0b 28 3e 3c a6 bd 3d 5c 7b 9d 3d
       0.14157292 0.16410695 0.09260222 0.076895446
000090 97 dd 94 3d 3c af 01 be 88 ad c0 3d 97 79 36 3e
       0.072688274 -0.12664503 0.094080985 0.1781982
0000a0 40 1b 8a 3e 2a f2 83 3d d2 7b 79 3d b4 d9 85 3d
       0.26973915 0.064426735 0.0609091 0.06535664
0000b0 78 49 ad 3d a1 85 c5 ba 8c 75 15 3e 68 2e b5 3d
       0.08461279 -0.0015069732 0.14595622 0.08846742
0000c0 82 3d 80 bd 31 d5 54 3e a8 2a b0 3d 08 87 01 3e
       -0.06261732 0.20784451 0.08601886 0.12649167
0000d0 97 b1 70 3e bf d9 dc bd e7 90 b7 3d 19 03 6b 3d
       0.23505245 -0.10783719 0.08963185 0.057376
0000e0 15 2c af bd 1e 0d 3f bd 06 8c 9e 3e 45 4d ae 3d
       -0.0855333 -0.04664337 0.30966204 0.08510832
0000f0 c5 c3 2e bd ec 2f 1a 3e ef c3 13 3d d8 bf ac 3e
       -0.04266717 0.15057343 0.03607553 0.33740115
000100 8c 7c 34 3d 29 50 02 3e b7 44 41 3e d8 3a 30 3e
       0.04406409 0.12725891 0.18873869 0.17209947
000110 d6 10 dd 3d d0 27 ff bd 9d 6e 1f 3e 45 e9 4b bc
       0.10794227 -0.124587655 0.1556954 -0.0124457525
000120 ca a2 05 bd 97 7d 85 3d 89 f4 73 3d be af 40 3e
       -0.03262595 0.06518095 0.05955938 0.1881704
000130 28 0c 1a bd e6 2a a1 3e 60 de a5 bc 1c 9e 7a 3b
       -0.03760925 0.3147804 -0.020247638 0.0038241213
000140 e8 cf 6f 3e 0b 90 0d 3e 1a 74 1a be fa 2d 8b 3d
       0.23419154 0.1382448 -0.15083352 0.06795879
000150 8d ae f4 3d d4 bc 29 3e 53 7e 92 3d 04 31 ac bb
       0.119473554 0.16575938 0.07153001 -0.0052548666
000160 e1 1c 01 bd c3 92 37 be 20 4d 75 bc 2f 02 aa 3b
       -0.03152168 -0.17927079 -0.014972001 0.0051882486
000170 04 4f 62 3d 8f b5 25 3e c3 9c 58 3c 97 a2 0d 3e
       0.055251136 0.1618254 0.013220969 0.13831554
000180 b6 22 45 3e 8c 20 a5 bc d0 ab 3a 3e 49 e5 7d 3e
       0.19251522 -0.020157121 0.18229604 0.24794497
000190 ca 5e a7 3d bb 7e 19 be 9e ef 10 3e 91 03 47 3e
       0.081723765 -0.1498975 0.14153907 0.19434954
0001a0 b5 19 43 3e 6a 75 fa 3d 76 2a 12 bd 6b b8 92 3d
       0.19052775 0.12229426 -0.035685025 0.07164081
0001b0 e2 fd e2 3c 14 e9 c2 bd b6 0e 05 3e 3e 1a c2 bb
       0.027708951 -0.095171124 0.12993893 -0.0059235385
0001c0 db 32 5b 3d 47 5f d8 3d a6 e0 d6 3d 7e fa 3b 3d
       0.053515296 0.10565048 0.10492067 0.045893185
0001d0 0e 5e 7c 3e d1 c0 69 bd 1d df c0 3d 52 35 5c 3d
       0.24645254 -0.05706865 0.094175555 0.053761788
0001e0 91 04 ad bd dc 56 d4 bd d8 96 41 3e 4f c0 a8 bd
       -0.084481366 -0.103681296 0.18905199 -0.08239805
0001f0 8b 77 99 bd 48 29 65 bc 5b 76 39 be d6 91 1b 3e
       -0.07493504 -0.013986893 -0.18111555 0.15192351
000200 54 95 7c be 7d f8 a3 3d 92 d5 61 3e 4e cf f5 bc
       -0.24666339 0.0800638 0.22054127 -0.030006077
000210 53 32 2f 3e b6 f1 e3 bd 61 21 a6 3e 7e 0b 4e 3c
       0.17109041 -0.11130087 0.3244734 0.012575982
000220 34 33 de 3c ac ef c9 3d f7 cf ca bd 80 0e 7f 3e
       0.027124025 0.09860167 -0.099029474 0.24907875
000230 34 68 1b 3e 0e 2c fd bd 66 5c 98 bd 71 1a dc 3d
       0.15176469 -0.123619184 -0.074394986 0.10747231
000240 eb 0c 1e 3d ef 62 d9 3d 4f 0f 6f bc 60 4f 3a 3d
       0.03858654 0.10614573 -0.014591052 0.045485854
000250 ca 3b 35 3d 22 14 3f 3e 70 e4 0d be 03 c4 84 3c
       0.044246472 0.18660024 -0.13856673 0.016206747
000260 03 f9 a6 3d 52 aa 09 be 8b fd 34 3d b5 6e 8f bd
       0.08152964 -0.13443878 0.04418711 -0.070035376
000270 d8 c0 36 3e 05 23 1d 3e 93 94 0b bd 87 e7 85 bb
       0.17847002 0.1534539 -0.03407724 -0.004086438
000280 58 35 c3 3d fc 1e ed bb b8 4d 1f 3e e1 90 b0 3e
       0.09531659 -0.0072363596 0.15556991 0.34485534
000290 ad aa d8 3d 2e 3c 23 be e2 5d f1 3d 38 87 8e 3c
       0.10579429 -0.15940925 0.11785485 0.017398462
0002a0 e6 1a 2b 3e 01 c4 f3 3d f5 f5 09 3e 84 0b 1a 3d
       0.1670948 0.11902619 0.13472731 0.03760864
0002b0 b8 f1 19 3d b8 97 8d bd d1 7e 07 3e e0 b0 6a 3e
       0.037584037 -0.06913704 0.1323197 0.22919035
0002c0 6c e7 20 3e 10 76 35 3d d4 cb c4 3d b1 80 72 3e
       0.1571328 0.044302046 0.0960919 0.23681904
0002d0 d6 9b 32 3d e4 3e a9 bc e0 4f 96 3d 4f e0 97 3d
       0.043605648 -0.020659871 0.07339454 0.0741583
0002e0 f2 0f a2 bd 62 b0 81 bd 5c 9e 37 3e 74 8a cd 3c
       -0.079131976 -0.063324705 0.17931503 0.025090434
0002f0 28 23 90 bd 1b f1 db 3d b2 ac f4 bd 84 a0 a5 bc
       -0.070379555 0.107393466 -0.119470015 -0.020218141
000300 81 5d fb bb ce d5 8a 3e 2e 4c b1 3d 7f d5 40 be
       -0.0076710586 0.27116245 0.08657108 -0.18831442
000310 7d c4 12 3d 51 32 61 be be 21 89 3c 8a a4 4a 3d
       0.035831917 -0.2199185 0.016739722 0.049473323
000320 81 79 ef 3d 04 f6 1e 3e 95 82 cf 3d 28 fa f3 3d
       0.11693097 0.15523535 0.101323284 0.11912948
000330 df 5a f3 3d 49 70 7f 3e 98 01 67 3d 6f 50 01 bc
       0.11882567 0.24945177 0.056398004 -0.007892712
000340 19 a0 dc 3e 3b 51 44 3e 7a f0 72 3d f5 8d fe 3d
       0.43090895 0.19171612 0.059311368 0.1242942
000350 c8 77 e6 3c 0a 57 22 3e 50 40 4a 3c 97 0d 50 3e
       0.028133288 0.15853515 0.012344435 0.20317684
000360 c2 6c 85 3c d0 04 20 be 26 c8 67 bd a4 e8 10 3d
       0.016287211 -0.15626836 -0.05658736 0.035378113
000370 f4 67 59 3e e7 1b 4d bd ea 2d a1 bd 91 90 03 3e
       0.21231061 -0.050075438 -0.078700855 0.12848116
000380 6f 6f 31 3e 4c a9 cc 3d ea 37 a6 bc 14 99 59 bd
       0.17327665 0.09993228 -0.020290334 -0.053124502
000390 2c e8 2b bd 88 35 c1 bd 16 4b 1f 3e e2 fa 36 3e
       -0.041969463 -0.094340384 0.15555987 0.17869142
0003a0 01 cc 05 3e e2 1d 20 3e f5 72 15 3e 56 7d cd bd
       0.13066103 0.156364 0.14594634 -0.100336716
0003b0 0d 37 83 3e d9 af 0a be 20 d9 cd 3d 38 38 31 3d
       0.25627938 -0.13543643 0.10051179 0.043266505
0003c0 14 bc 64 3c 9f cd 27 bd be ef 92 3e 70 12 23 3e
       0.013960857 -0.04096758 0.28698534 0.15925002
0003d0 14 18 a6 3c aa b9 be bc 44 3c b4 3d 6c 75 5e 3e
       0.020275153 -0.02328189 0.08800557 0.2172448
0003e0 d0 c5 ef bd 44 48 23 be d5 16 e8 3d 2f 72 76 bd
       -0.117076516 -0.15945536 0.1133248 -0.060167488
0003f0 15 96 17 be 8f 68 3d 3d bc 98 aa bd 59 cf b1 3d
       -0.14803346 0.046242293 -0.08329913 0.086821266

fc3.bias f4 [4]
000000 59 c9 04 3e 87 b6 19 3e 79 4f a7 3b c1 cd 55 bb
       0.12967433 0.15011035 0.0051059094 -0.003262386
